chess_weights.pth (torch, 823645 bytes, 5 tensors)

layer1.weight f4 [256, 768]
0	0xbcfbfeb1	-0.030761095
1	0xbbbbeb63	-0.0057348474
2	0x3c8cd6c4	0.017192252
3	0xbd0cc183	-0.034364235
4	0x3cf07394	0.029351987
5	0xbd1020b4	-0.035187438
6	0x3bef867f	0.0073097344
7	0xbceb2f40	-0.028709054
8	0x3d0a482b	0.03376023
9	0xbdf6da5e	-0.12053369
10	0x3d8d2daf	0.06893479
11	0x3d4aa883	0.04947711
12	0x3d55c760	0.052192092
13	0x3cbb70db	0.022880962
14	0xbacd541f	-0.0015665329
15	0xbdc1022a	-0.09424241
16	0x3e00bca6	0.12571964
17	0x3bf225de	0.007389768
18	0xbc9be0ef	-0.019028155
19	0x3d910db8	0.07082695
20	0xbe506836	-0.20352253
21	0x3b3d1b20	0.002885528
22	0xbe8cf87a	-0.27533323
23	0x3d5ca819	0.053871248
24	0xbe1df659	-0.15426005
25	0x3daf509c	0.08560297
26	0xbdbfaf04	-0.093595535
27	0x3beea2dd	0.0072825984
28	0xbd16b396	-0.03679236
29	0xbceb84ff	-0.02874994
30	0xbd4b7612	-0.049673147
31	0xbe66ea63	-0.22550349
32	0xbe309d99	-0.17247619
33	0xbe28f97a	-0.16501418
34	0xbe0ddfe5	-0.1385494
35	0x3dc4ed5d	0.09615586
36	0xbe75d162	-0.24005654
37	0xbc39bdb0	-0.011336729
38	0xbede438f	-0.43410918
39	0xbea9a2a9	-0.33131912
40	0x3d79e0b2	0.0610053
41	0xbe0936a7	-0.13399754
42	0xbe40ec24	-0.1884008
43	0x3c4d5e04	0.012534622
44	0xbdf4dd06	-0.119562194
45	0xbe12c774	-0.14333898
46	0xbd81928f	-0.06326782
47	0x3e314bc7	0.17314063
48	0xbde07630	-0.109600425
49	0xbe24a845	-0.16079815
50	0x3d9d536d	0.07681928
51	0x3d1bf64f	0.038076695
52	0xbe5d00af	-0.21582292
53	0xbc63f7f6	-0.013914099
54	0xbee0d527	-0.43912622
55	0x3e28e48a	0.1649343
56	0x3d07c003	0.0331421
57	0x3cb195b7	0.021677835
58	0x3c5f2b1e	0.01362112
59	0xbcf7a5c0	-0.030230403
60	0xbcd6b52c	-0.026209436
61	0x3d01820a	0.031618156
62	0xbd1211f1	-0.03566164
63	0xbc389c53	-0.011267739
64	0x3cd49c7f	0.02595353
65	0xbd38ac26	-0.04508605
66	0xbbadac0f	-0.005300052
67	0x3cc15476	0.023599844
68	0x3bc8a5a0	0.0061232597
69	0x3d18c78a	0.03729967
70	0x3dc2c180	0.095095634
71	0x3cc4b54b	0.024012228
72	0xbd21f774	-0.03954263
73	0x3dd6d223	0.10489299
74	0x3dab234b	0.08356341
75	0x3dcdfdb3	0.10058155
76	0xbdd8fcd4	-0.10595098
77	0xbdc85e8d	-0.09783659
78	0xbb0a8044	-0.0021133581
79	0x3d4084e6	0.04700174
80	0xbd97b224	-0.074070245
81	0x3e44febe	0.19237801
82	0xbe0a6bcc	-0.13517684
83	0xbd28d384	-0.041217342
84	0xbe12d71b	-0.14339869
85	0xbe05c841	-0.13064672
86	0xbd52385a	-0.051323272
87	0xbd331b27	-0.043727066
88	0xbd4d28fa	-0.050087906
89	0xbd0e8c62	-0.03480185
90	0xbe0014ca	-0.1250793
91	0xbcccd39a	-0.025003243
92	0xbdd3dd6b	-0.103449665
93	0xbe55f935	-0.20895846
94	0x3cb1fc37	0.02172671
95	0xbb9f899d	-0.0048686997
96	0x3d0e68a0	0.034767747
97	0xbd784698	-0.0606142
98	0x3d3a1afb	0.045435887
99	0x3a36ad0f	0.0006968537
100	0xbdab1adb	-0.08354732
101	0xbe123cde	-0.14281031
102	0x3a52b077	0.00080371596
103	0xbe1f991e	-0.15585753
104	0xbac45327	-0.0014978395
105	0x3aab373c	0.0013062726
106	0xbe03c543	-0.12868218
107	0x3e1a8a02	0.15091708
108	0x3c74611f	0.014915734
109	0xbc3ae99f	-0.011408239
110	0xba930c05	-0.0011218792
111	0x3cb5136f	0.022103993
112	0xbccef971	-0.025265427
113	0xbe708fb7	-0.23492323
114	0x3cd3e425	0.025865624
115	0xbd89a33a	-0.06720586
116	0xbb8b0336	-0.004242326
117	0xbd142612	-0.03616912
118	0xbbdc20ff	-0.0067178006
119	0x3bf09e42	0.0073430846
120	0xbd470845	-0.04859187
121	0x3baaca64	0.005212115
122	0xbbe2f7e5	-0.006926524
123	0xbb1231f0	-0.0022307597
124	0x3bbd4fc1	0.0057773297
125	0xbd5e1868	-0.054222494
126	0xbc97cffd	-0.018531794
127	0xbd78b8a5	-0.060722966
128	0x3bfd320f	0.0077269147
129	0xbecd0101	-0.40039828
130	0x3d2bd1b4	0.041948035
131	0xbe5aae8c	-0.21355647
132	0xbe2e9e98	-0.17052686
133	0x3d054ce9	0.03254405
134	0xbe07a087	-0.1324483
135	0xbed47402	-0.41494757
136	0xbdc540e9	-0.09631521
137	0x3ce4ec9e	0.02794486
138	0x3d0839aa	0.033258118
139	0xbe0ce104	-0.13757712
140	0x3d55b049	0.05217007
141	0xbe040551	-0.12892653
142	0xbd2bf15d	-0.04197823
143	0xbc023101	-0.007946254
144	0x3d0231e3	0.031785857
145	0xbe13f331	-0.14448239
146	0x3cc23c6e	0.023710456
147	0xbd438612	-0.04773528
148	0x3cd8f6c5	0.026484856
149	0xbc84b1b9	-0.016198026
150	0xbe46c828	-0.19412291
151	0xbd8d452d	-0.0689796
152	0x3de1db57	0.11028164
153	0xbdcd08dc	-0.100114554
154	0xbeba1db8	-0.363508
155	0x3df43b7e	0.1192541
156	0xbee75857	-0.45184585
157	0xbdb185c8	-0.08668095
158	0xbd9ac8da	-0.07557841
159	0xbe39b24e	-0.18134424
160	0x3e63c89a	0.22244492
161	0x3d68be4f	0.056822117
162	0xbe561768	-0.20907366
163	0xbdc6c2aa	-0.09705098
164	0xbc916ae6	-0.017751168
165	0xbe8cb38b	-0.2748073
166	0xbe81516c	-0.25257432
167	0xbda6371f	-0.08115982
168	0xbd6c32c9	-0.05766562
169	0xbd83b5f0	-0.06431186
170	0x3e1c0d2b	0.15239398
171	0xbca5d65b	-0.020243814
172	0xbe3cb227	-0.18427335
173	0xbc9a3b62	-0.018827144
174	0xbe22fb2a	-0.15916124
175	0xbe0617a1	-0.13094951
176	0x3d31fee5	0.043455977
177	0x3e147752	0.14498642
178	0xbd95b9ff	-0.073108666
179	0xbe241239	-0.16022576
180	0x3c7c3f81	0.015396
181	0xbce66e80	-0.028128862
182	0xbd83fb37	-0.064444
183	0x3d0ff306	0.035143875
184	0xbe7a8dd7	-0.2446817
185	0xbdffadad	-0.12484298
186	0x3b34847c	0.0027544787
187	0x3e129e46	0.14318189
188	0xbd01d397	-0.03169593
189	0xbd537fe9	-0.051635657
190	0xbdb24de1	-0.087062605
191	0xbd078685	-0.033087272
192	0x3c508bcd	0.012728644
193	0x3e1b91af	0.15192293
194	0xbe17b79b	-0.14816134
195	0xbd2ffd7b	-0.042966347
196	0x3d7f8757	0.06238493
197	0xbeb8b1c3	-0.3607312
198	0xbe05c82d	-0.13064642
199	0xbd91b342	-0.07114269
200	0xbc9264ca	-0.017870326
201	0x3d14cdc0	0.03632903
202	0xbe22e516	-0.15907702
203	0xbc83b8a8	-0.016079262
204	0xbe2f2a4e	-0.17105982
205	0xbd9065e1	-0.07050682
206	0xbd86b24a	-0.06576975
207	0x3d4a5e17	0.049406137
208	0xb9392886	-0.00017658071
209	0xbe2418cb	-0.16025083
210	0xbdc268ba	-0.09492631
211	0xbcd5a41b	-0.026079228
212	0xbe52468a	-0.20534721
213	0x3d11c6fe	0.035590164
214	0xbdb7c790	-0.089736104
215	0xbdd504a9	-0.104012795
216	0xbe8fb3ac	-0.28066766
217	0xbe31da23	-0.17368369
218	0xbec52910	-0.3850789
219	0x3c7e873d	0.015535173
220	0xbe058c74	-0.1304186
221	0xbdf89485	-0.12137703
222	0xbe439ff0	-0.1910398
223	0xbd0f6f53	-0.035018276
224	0xbed43c48	-0.4145224
225	0x3daf9fc9	0.085753985
226	0xbd43e6a0	-0.047827363
227	0x3e082123	0.1329389
228	0xbe44e3ec	-0.1922757
229	0xbdb4d2bc	-0.08829257
230	0xbdf56981	-0.11983014
231	0xbe0031f4	-0.12519056
232	0xbd021bd1	-0.03176481
233	0x3e22dcb7	0.15904509
234	0xbe729746	-0.23690519
235	0xbe369d89	-0.17833532
236	0xbe3149b3	-0.1731327
237	0xbcf447d6	-0.02981941
238	0xbe4551c2	-0.1926947
239	0xbdfc6d9f	-0.12325596
240	0xbd816e41	-0.063198574
241	0xbd87bad3	-0.06627431
242	0xbe5e387c	-0.21701235
243	0x3d56c198	0.05243072
244	0xbd992430	-0.07477605
245	0xbe14646c	-0.14491433
246	0xbd5753f6	-0.052570306
247	0xbe53125b	-0.20612471
248	0x3e0e7904	0.13913351
249	0xbea22aef	-0.3167338
250	0xbdc1ed3b	-0.09469076
251	0x3d505f64	0.05087222
252	0xbd2330cb	-0.039841454
253	0xbe0267ea	-0.12734953
254	0xbdd2ebf1	-0.102989085
255	0xbed09505	-0.40738693

layer1.bias f4 [256]
0	0x3dbca4ff	0.09211158
1	0x3e28503c	0.16436857
2	0x3e1c0326	0.15235576
3	0x3e7ef90a	0.24899688
4	0x3e399cd7	0.18126236
5	0x3e94e482	0.29080588
6	0x3e13f57e	0.14449117
7	0x3e536cc4	0.2064696
8	0x3e2c9ec8	0.16857445
9	0x3df5b0ea	0.11996634
10	0x3e37556d	0.17903681
11	0x3e258387	0.16163455
12	0x3dc78d0c	0.097436994
13	0x3e663fb6	0.22485241
14	0x3e860c99	0.26181486
15	0x3e26c39e	0.1628556
16	0x3f14fe10	0.5820017
17	0x3e22de9b	0.1590523
18	0x3df21267	0.11819916
19	0x3f10ec30	0.56610394
20	0x3ec50c27	0.38485834
21	0x3e2ffec8	0.17187035
22	0x3eb08ca6	0.34482306
23	0x3e3fb1f8	0.18720233
24	0x3d1cdf2a	0.038298763
25	0x3e0ca039	0.13732995
26	0x3e686093	0.2269309
27	0x3e1e73da	0.15473881
28	0x3f1585aa	0.5840708
29	0x3f0126bc	0.5044973
30	0x3e0c873c	0.13723463
31	0x3ded2d1f	0.11580872
32	0x3f019cdd	0.5062998
33	0x3e297327	0.16547833
34	0x3e4a55d1	0.19759299
35	0x3e5dd0f4	0.2166174
36	0x3e008170	0.12549376
37	0x3e387915	0.18014939
38	0x3e0f1aab	0.13975017
39	0x3e19c49a	0.15016404
40	0x3e5439b3	0.20725136
41	0x3f1b2aa7	0.6061196
42	0x3d20e164	0.03927745
43	0x3f0dd623	0.5540487
44	0x3ee308d5	0.44342676
45	0x3e869200	0.26283264
46	0x3f07863b	0.52939194
47	0x3e09dad6	0.13462386
48	0x3d730158	0.059327453
49	0x3ea402c9	0.32033375
50	0x3e3696e9	0.17831005
51	0x3e3e2bad	0.18571348
52	0x3f1276e7	0.5721268
53	0x3f12c4b8	0.5733142
54	0x3e0dfb3c	0.1386537
55	0x3e22fd70	0.15916991
56	0x3e38c96b	0.18045585
57	0x3de14dec	0.110011905
58	0x3e8f94f5	0.28043333
59	0x3ef08f3d	0.46984282
60	0x3db97631	0.09055746
61	0x3dc3c4b6	0.09559004
62	0x3dfce5e9	0.123485394
63	0x3ebcb14a	0.3685401
64	0x3d96575a	0.0734088
65	0x3e3d1382	0.18464473
66	0x3e1759af	0.14780305
67	0x3e4184d6	0.18898329
68	0x3f1a64a8	0.6030984
69	0x3e5edaae	0.21763107
70	0x3e963988	0.29340768
71	0x3e3d35c5	0.18477543
72	0x3e77dd79	0.24205579
73	0x3d4ea6a6	0.050451897
74	0x3e67b3c2	0.22627166
75	0x3e46ebb0	0.19425845
76	0x3e2e8e6d	0.17046519
77	0x3e25b2e6	0.16181526
78	0x3de7d4fb	0.1131992
79	0x3ed6b976	0.4193837
80	0x3e3d9019	0.18512
81	0x3e7854fe	0.24251172
82	0x3e7fb0a7	0.24969731
83	0x3e287748	0.16451752
84	0x3e2d6f8e	0.16937086
85	0x3e0400ba	0.12890902
86	0x3e1e5897	0.15463482
87	0x3e4875f1	0.19576241
88	0x3dd8f424	0.10593441
89	0x3df9a979	0.121905275
90	0x3e47b3d9	0.195022
91	0x3e0069be	0.12540337
92	0x3e10fd0d	0.14159031
93	0x3e6a0fdb	0.22857611
94	0x3e2e88dd	0.17044397
95	0x3e82adf2	0.25523335
96	0x3d40d8e6	0.04708185
97	0x3e10bffe	0.14135739
98	0x3e4dcf70	0.20098662
99	0x3daa7397	0.08322828
100	0x3d857a58	0.06517476
101	0x3e367a47	0.17820083
102	0x3e2cb4a9	0.16865791
103	0x3d926f4c	0.071501344
104	0x3eac03df	0.33596703
105	0x3e650e15	0.22368653
106	0x3e67a8ef	0.22623037
107	0x3f22ce2c	0.63595843
108	0x3e4963b3	0.19666938
109	0x3dd11c56	0.10210483
110	0x3e58733b	0.21137707
111	0x3de18cba	0.110131696
112	0x3e55cab9	0.20878114
113	0x3f18bbc5	0.59661514
114	0x3ddd784d	0.10813961
115	0x3d8b9b29	0.06816704
116	0x3e4349e7	0.1907116
117	0x3e26548e	0.16243193
118	0x3e379605	0.17928322
119	0x3e56d3ae	0.20979187
120	0x3e38eee7	0.18059884
121	0x3e9fc420	0.3120432
122	0x3ee1878c	0.44048727
123	0x3e2ce387	0.1688367
124	0x3e24e9d8	0.1610483
125	0x3f1bc090	0.608407
126	0x3e0cb50b	0.13740937
127	0x3e71e494	0.23622352
128	0x3e96a9a1	0.29426292
129	0x3dd0852a	0.10181649
130	0x3e39df0e	0.18151495
131	0x3e7edf79	0.24889936
132	0x3eb18f6d	0.34679738
133	0x3e160381	0.14649774
134	0x3e49eba1	0.19718792
135	0x3dce2e11	0.1006738
136	0x3e404ec8	0.18780053
137	0x3e86f092	0.26355416
138	0x3e3662c8	0.1781112
139	0x3f1b8677	0.6075205
140	0x3e1d0405	0.15333565
141	0x3e21226e	0.1573579
142	0x3e51a3ad	0.20472594
143	0x3e355579	0.17708386
144	0x3e2d4a3c	0.1692285
145	0x3dbff01e	0.093719706
146	0x3e517d15	0.20457871
147	0x3e46a199	0.19397582
148	0x3e3742ca	0.17896572
149	0x3f1118a7	0.5667824
150	0x3f18cee7	0.5969071
151	0x3de96215	0.11395661
152	0x3e3f8766	0.18703994
153	0x3e4c05c3	0.19924073
154	0x3e44e5c3	0.19228272
155	0x3e1e3b43	0.15452294
156	0x3f202901	0.62562567
157	0x3f1898f4	0.5960839
158	0x3e1bc4d3	0.15211801
159	0x3e1748ab	0.14773814
160	0x3e5bb30f	0.21455024
161	0x3e09e7da	0.1346735
162	0x3ecb18ba	0.39667302
163	0x3f0af0bb	0.54273576
164	0x3e1dc8ce	0.15408632
165	0x3e159893	0.14608984
166	0x3e044010	0.12915063
167	0x3e6edc32	0.23326185
168	0x3df233f1	0.11826313
169	0x3f194c0d	0.5988167
170	0x3dd674e3	0.10471513
171	0x3e1f350b	0.15547578
172	0x3e10886b	0.1411454
173	0x3e4fe13a	0.20300761
174	0x3f0e39ab	0.55556744
175	0x3e6494e1	0.22322418
176	0x3e3eb200	0.18622589
177	0x3f1bdaa3	0.6088049
178	0x3e0de716	0.13857684
179	0x3e675935	0.22592624
180	0x3e5d1106	0.21588525
181	0x3e443311	0.19160105
182	0x3e530bc6	0.2060996
183	0x3f0b8aa7	0.5450844
184	0x3e276941	0.16348745
185	0x3e279711	0.16366221
186	0x3e7b5793	0.24545126
187	0x3e5d2158	0.21594751
188	0x3e2f01a8	0.17090476
189	0x3eeb645e	0.45975012
190	0x3e05a4dd	0.13051172
191	0x3dafc6eb	0.085828625
192	0x3defd147	0.11709838
193	0x3e1e216f	0.15442441
194	0x3eae8436	0.34085244
195	0x3d1e42ce	0.03863793
196	0x3dfa009a	0.12207146
197	0x3e3e35ef	0.18575262
198	0x3e18563b	0.14876644
199	0x3e38e56a	0.18056265
200	0x3e2b1487	0.1670705
201	0x3e313985	0.17307098
202	0x3e54f07e	0.20794865
203	0x3d01ea51	0.031717602
204	0x3e26117f	0.16217612
205	0x3dd3372e	0.10313259
206	0x3e27eaa3	0.163981
207	0x3df1f707	0.11814695
208	0x3ef77023	0.4832774
209	0x3e96c694	0.29448378
210	0x3e3cd36e	0.18440029
211	0x3e203d0e	0.1564829
212	0x3d661cfa	0.056179978
213	0x3d42a5ea	0.04752151
214	0x3e220395	0.15821679
215	0x3e126c1c	0.14299053
216	0x3e271e05	0.16320045
217	0x3de5d291	0.11221803
218	0x3f12d925	0.57362586
219	0x3e29d860	0.16586447
220	0x3e3f2b4e	0.18668863
221	0x3e59b3ce	0.21259996
222	0x3f07ede5	0.53097373
223	0x3dcd3ac0	0.10020971
224	0x3da44eaf	0.0802282
225	0x3de08425	0.109627046
226	0x3e2ab462	0.16670373
227	0x3d85a73d	0.06526039
228	0x3e7a99a2	0.24472669
229	0x3e12919b	0.14313357
230	0x3f1c1dae	0.6098279
231	0x3e1e7ab9	0.15476502
232	0x3e418ef2	0.18902186
233	0x3e02304f	0.12713741
234	0x3e1b3108	0.15155423
235	0x3f0529e9	0.52017075
236	0x3da73783	0.08164885
237	0x3f19e860	0.601202
238	0x3de149ba	0.1100039
239	0x3e5cace3	0.21550326
240	0x3eeb4427	0.45950434
241	0x3e4c3b03	0.19944386
242	0x3ead68dd	0.33869067
243	0x3dd6056a	0.104502514
244	0x3e162b35	0.1466492
245	0x3e3696e4	0.17830998
246	0x3dac630f	0.084173314
247	0x3e0c8486	0.13722429
248	0x3e508745	0.20364101
249	0x3e3ae91a	0.18252984
250	0x3e43372f	0.1906402
251	0x3e218aa3	0.15775542
252	0x3f0f572f	0.55992407
253	0x3e4237e2	0.1896663
254	0x3e346793	0.17617635
255	0x3e28908c	0.1646139

layer2.weight f4 [32, 256]
0	0xbf10d840	-0.5657997
1	0xbd9e2ee0	-0.077237844
2	0x3e5e8d2b	0.21733539
3	0x3d0d7d32	0.034543224
4	0xbd90989a	-0.070603564
5	0x3e5dd854	0.21664554
6	0x3f56e7ed	0.8394764
7	0x3e7a117e	0.24420735
8	0xbdba17d9	-0.0908658
9	0x3e87e70e	0.26543468
10	0x3f578a25	0.84195167
11	0x3e777069	0.24163975
12	0xbed31141	-0.412241
13	0x3d1065a5	0.035253186
14	0x3ce8785e	0.028377708
15	0x3e61995a	0.22031155
16	0x3e5f7ecd	0.21825714
17	0xbdbef393	-0.09323802
18	0x3f60708b	0.87671727
19	0x3e779560	0.24178076
20	0x3d8483ef	0.06470477
21	0x3e868533	0.26273498
22	0x3e36b604	0.17842871
23	0xbc987c81	-0.018614056
24	0x3ee1baa3	0.44087705
25	0x3e53c8ef	0.20682119
26	0x3e39efb5	0.18157847
27	0xbdc1811b	-0.09448453
28	0x3e2b8ac5	0.16752155
29	0x3e82ec45	0.25570884
30	0xbcff3f74	-0.031158186
31	0x3ea8389b	0.32855687
32	0x3db85770	0.090010524
33	0x3e969e36	0.2941758
34	0x3ce915f9	0.02845286
35	0x3d6b3406	0.05742266
36	0xbe4357b6	-0.19076428
37	0x3e961e9c	0.29320228
38	0x3e913ea8	0.28368115
39	0xbf28b6ff	-0.6590423
40	0x3d69980b	0.057029765
41	0x3e2e1c54	0.17002994
42	0x3ee34ca1	0.443944
43	0x3e38f55f	0.18062352
44	0x3e95d132	0.29261166
45	0xbf4df23e	-0.8044776
46	0x3e3f54c6	0.18684682
47	0xbcff1228	-0.031136587
48	0x3f2c2010	0.67236423
49	0x3d1b8e2b	0.03797738
50	0x3eaa456a	0.33256084
51	0x3d4c626f	0.04989856
52	0x3e5ce3ec	0.2157132
53	0x3e5ec59e	0.21755072
54	0xbd0e6c3a	-0.03477118
55	0x3e82f5a9	0.2557805
56	0x3f606f21	0.8766957
57	0xbf703d97	-0.9384398
58	0xbb3a9848	-0.0028472114
59	0x3dd7e774	0.10542193
60	0x3ee5ced2	0.44884354
61	0xbed9c2fc	-0.42531574
62	0xbdafc849	-0.08583123
63	0x3e7ec53e	0.2487993
64	0xbecefc87	-0.40427038
65	0x3be8defc	0.00710666
66	0xbf429122	-0.76002705
67	0x3e601b8f	0.21885513
68	0x3e25c4f6	0.16188416
69	0x3e580809	0.21096815
70	0x3e90f8ae	0.28314728
71	0xbd5917e6	-0.053001307
72	0xbf41783f	-0.75574106
73	0xbf1006fd	-0.56260663
74	0xbd3499d7	-0.044092026
75	0x3e9c04d1	0.30472425
76	0xbda07b3f	-0.07836007
77	0x3e84f22d	0.25966015
78	0x3e95cd37	0.2925813
79	0x3de0e978	0.10982031
80	0x3f6afbfd	0.91790754
81	0xbb5c3fdd	-0.0033607401
82	0xbd57dc09	-0.052700076
83	0x3f4fcac2	0.8116876
84	0x3cf75934	0.030193903
85	0x3e75a40b	0.23988359
86	0x3e9cd1d1	0.30628827
87	0xbcf27fff	-0.029602049
88	0x3f624698	0.8838897
89	0x3e6572f4	0.22407132
90	0x3d0d9db5	0.03457423
91	0xbdeb6e7c	-0.114956826
92	0x3e8cb4b5	0.2748162
93	0xbf3b8b78	-0.7325969
94	0xbbac584c	-0.0052595492
95	0xbc95e480	-0.018297434
96	0xbef5efbf	-0.48034474
97	0x3e7e9e3c	0.24865049
98	0xbf33001f	-0.6992206
99	0x3eac8caa	0.33701068
100	0x3ede34cf	0.43399665
101	0x3f5bed8f	0.8590936
102	0x3e61a9f8	0.22037494
103	0x3f75e8af	0.9605817
104	0x3ddf3bf7	0.10900109
105	0xbd0f08c1	-0.034920458
106	0xbb0e0177	-0.0021668354
107	0x3e2faa73	0.17154865
108	0x3d2ae741	0.041724447
109	0xbdc197e6	-0.094528005
110	0x3bb3bdd6	0.0054852767
111	0xbe26b441	-0.16279699
112	0x3e9962e4	0.2995826
113	0x3e2aaa7e	0.166666
114	0xbda94e8f	-0.08266937
115	0x3f1d08d2	0.61341584
116	0xbf439591	-0.76400095
117	0xbd307e8a	-0.043089427
118	0x3e96aa9f	0.2942705
119	0xbcfcac66	-0.030843925
120	0xbd8e7308	-0.06955534
121	0x3e83898c	0.25690877
122	0x3e124aa9	0.14286293
123	0x3e4aa934	0.19791108
124	0xbe0cd66e	-0.13753673
125	0x3e826869	0.25470284
126	0x3e89aa06	0.2688753
127	0x3d391370	0.045184553
128	0x3cd71f62	0.026260082
129	0xbe160130	-0.1464889
130	0xbd9d2c92	-0.07674517
131	0x3da21225	0.07913617
132	0x3e4cb1ff	0.19989775
133	0xbdb7000e	-0.08935557
134	0xbae2bfca	-0.0017299589
135	0x3e6ed38e	0.23322889
136	0xbd517308	-0.051135093
137	0x3e96e443	0.29471025
138	0xbf43a785	-0.7642749
139	0x3e04e9af	0.12979768
140	0xbb915689	-0.0044353646
141	0xbf71869d	-0.9434603
142	0x3f5a9476	0.85382783
143	0xbcd9a29a	-0.026566792
144	0x3e648bc1	0.22318937
145	0xbe050456	-0.12989935
146	0x3e799a0b	0.24375169
147	0xbdaf1c6e	-0.085503444
148	0xb9470042	-0.00018978215
149	0x3e338098	0.17529523
150	0x3e7841f4	0.24243909
151	0x3e9772fb	0.2957991
152	0x3e9fd141	0.31214336
153	0x3e5abc65	0.2136093
154	0x3e496e35	0.19670947
155	0x3e9a89c5	0.30183235
156	0x3e862c94	0.26205885
157	0x3e6909a3	0.22757582
158	0x3e5a9594	0.21346122
159	0xbdac751a	-0.08420773
160	0x3f6e0c00	0.9298706
161	0x3e874bd6	0.26425046
162	0x3e05994b	0.13046758
163	0x3e3eb246	0.18622693
164	0xbe2e22a7	-0.17005406
165	0xbc88483c	-0.016636007
166	0xbcfebcf1	-0.031095954
167	0x3f6db0a3	0.9284765
168	0xbf1e854c	-0.61922145
169	0x3e85d390	0.26137972
170	0x3f11bee7	0.5693192
171	0x3e8c2871	0.27374604
172	0x3e480edb	0.19536917
173	0x3d5c0c43	0.05372263
174	0x3df914d9	0.121621795
175	0xbc62dcdc	-0.013846602
176	0x3f565a21	0.83731276
177	0x3e77d087	0.2420064
178	0xbf3b6586	-0.7320179
179	0xbccb0ac6	-0.02478541
180	0xbd9b9d3a	-0.07598348
181	0xbf0913c3	-0.5354578
182	0x3cb8380e	0.022487666
183	0x3df8c91a	0.12147732
184	0xbd6e1e17	-0.058134165
185	0xbf3b45e6	-0.7315353
186	0x3d4308eb	0.047615927
187	0xbda165a6	-0.07880716
188	0x3e84cc80	0.2593727
189	0x3e5b80ab	0.21435802
190	0x3e5ec22a	0.21753755
191	0x3f0948b4	0.5362656
192	0xbe4fb988	-0.20285618
193	0x3e701941	0.23447134
194	0x3d97db2b	0.0741485
195	0x3f116a34	0.5680268
196	0x3e9a5225	0.30140796
197	0x3e4bb37d	0.19892688
198	0x3e673810	0.2257998
199	0x3cdd4e6f	0.02701494
200	0x3c826e46	0.015921723
201	0x3b913e3b	0.0044324673
202	0xbf54b170	-0.8308325
203	0xbeab4c31	-0.33456567
204	0x3e983e1c	0.29734886
205	0xbd1fe799	-0.039039228
206	0x3e707d79	0.23485364
207	0x3e7d4450	0.2473309
208	0x3e3e7d42	0.1860247
209	0x3ce365c4	0.027758487
210	0xbd5f4b31	-0.054515067
211	0x3e70bec7	0.23510276
212	0x3e980187	0.29688665
213	0x3e902eb6	0.28160638
214	0x3e7f268f	0.24917053
215	0x3e84428a	0.25832015
216	0x3b3e8e17	0.0029076391
217	0xbf086f36	-0.53294694
218	0x3e446995	0.19180901
219	0x3e968c25	0.29403797
220	0x3e6428a6	0.22281131
221	0xbcf3d929	-0.029766636
222	0x3e497850	0.19674802
223	0x3eaf7526	0.34269065
224	0x3f4ae12c	0.79249835
225	0x3e8b1179	0.27161768
226	0x3ea0ad66	0.31382293
227	0x3e935820	0.28778172
228	0xbb81c749	-0.003960524
229	0x3e9b354b	0.30314097
230	0x3e28f9f8	0.16501606
231	0x3e8b6056	0.27221936
232	0x3e6b386d	0.22970743
233	0xbcb2cd03	-0.021826273
234	0x3eac7c7f	0.33688733
235	0x3e4158e3	0.18881564
236	0x3e6c6d84	0.23088652
237	0x3e3d885e	0.18509051
238	0x3e9faeee	0.31188148
239	0x3e5c3011	0.21502711
240	0x3e1cc801	0.1531067
241	0x3e99b622	0.3002177
242	0x3e89a64d	0.2688469
243	0x3e8155ad	0.25260678
244	0x3f609ce2	0.87739384
245	0x3e97d4d6	0.29654568
246	0xbe17dba0	-0.14829874
247	0xbd61ee09	-0.05515865
248	0xbf48eebf	-0.784893
249	0x3f7189e4	0.9435103
250	0x3c59d67e	0.013295768
251	0x3f62f334	0.8865235
252	0x3e714b83	0.23563962
253	0xbcf67acb	-0.03008785
254	0x3f7c2832	0.98498833
255	0xbd7d31ef	-0.0618152

layer2.bias f4 [32]
0	0x3e338828	0.17532408
1	0x3e93c7b5	0.28863302
2	0x3e55120b	0.20807664
3	0x3e4cc59c	0.19997257
4	0xbd844444	-0.06458333
5	0x3e7a5e99	0.24450149
6	0x3e4551a8	0.1926943
7	0x3e3c775d	0.18404908
8	0x3e833537	0.25626537
9	0x3e3bd42f	0.1834266
10	0x3e726fef	0.23675512
11	0x3e4f0ae5	0.20219
12	0x3e6a844a	0.22902027
13	0x3e2e7dfd	0.17040248
14	0x3e55da2b	0.20884006
15	0x3e183b91	0.14866473
16	0x3e76e633	0.24111252
17	0x3e567dc8	0.20946419
18	0x3e64940a	0.22322097
19	0x3e1515c2	0.14559081
20	0x3e3501cf	0.17676471
21	0x3e20088d	0.15628262
22	0x3e8a3e23	0.27000532
23	0x3e845e0b	0.25853
24	0xbd27a77c	-0.04093121
25	0x3e285901	0.16440202
26	0x3e4a84ae	0.19777176
27	0x3e5606bb	0.20901005
28	0x3e5383d0	0.20655751
29	0x3e312579	0.17299451
30	0x3e62f0de	0.22162196
31	0xbd86c2ad	-0.065801

layer3.weight f4 [1, 32]
0	0x3f05b5c1	0.5223046
1	0xbefda423	-0.4953929
2	0x3f243f20	0.6415882
3	0x3f0eca56	0.5577749
4	0x3d8ea5b7	0.06965201
5	0x3efe03e3	0.4961234
6	0xbf22f475	-0.6365426
7	0x3f1d3534	0.61409307
8	0xbf1ce978	-0.61293745
9	0x3f157cd7	0.58393615
10	0xbf1c77ab	-0.611201
11	0xbf0b7c3d	-0.5448645
12	0xbf064baa	-0.52459204
13	0x3f246e73	0.6423103
14	0x3f0efa13	0.5585033
15	0x3f17bd51	0.5927325
16	0xbf10b03e	-0.56518924
17	0x3f23c24e	0.6396836
18	0xbf25802b	-0.64648694
19	0x3f208deb	0.6271655
20	0x3effd9b2	0.49970776
21	0x3efff7d5	0.49993768
22	0xbf01a959	-0.5064903
23	0xbf12bab8	-0.5731616
24	0x3e0a5684	0.13509566
25	0xbf0bbd6b	-0.54585904
26	0xbf14a2e2	-0.5806104
27	0xbf06a40b	-0.5259406
28	0x3f1f6da7	0.6227669
29	0x3f0de671	0.5542975
30	0xbf0d9669	-0.5530763
31	0x3e091638	0.13387382
